…
                    #Dropout to prevent overfitting\n","model.add(Dense(100, activation='relu'))\n","model.add(Dropout(0.2))\n","model.add(Dense(50, activation='relu'))\n","model.add(Dropout(0.2))\n","model.add(Dense(7, activation='softmax'))\n","model.summary() "],"execution_count":null,"outputs":[{"output_type":"stream","text":["Model: \"sequential_2\"\n","_________________________________________________________________\n","Layer (type)                 Output Shape              Param #   \n","=================================================================\n","dense_8 (Dense)              (None, 200)               9400      \n","_________________________________________________________________\n","dropout_6 (Dropout)          (None, 200)               0         \n","_________________________________________________________________\n","dense_9 (Dense)              (None, 100)               20100     \n","_________________________________________________________________\n","dropout_7 (Dropout)          (None, 100)               0         \n","_________________________________________________________________\n","dense_10 (Dense)             (None, 50)                5050      \n","_________________________________________________________________\n","dropout_8 (Dropout)          (None, 50)                0         \n","_________________________________________________________________\n","dense_11 (Dense)             (None, 7)                 357       \n","=================================================================\n","Total params: 34,907\n","Trainable params: 34,907\n","Non-trainable params: 0\n","_________________________________________________________________\n"],"name":"stdout"}]},{"cell_type":"code","metadata":{"id":"ehI5Xo_iq0GG"},"source":["# compile the model\n","model.compile(optimizer='rmsprop', # use rmsprop or Adam\n"
…
250, activation='relu'))\n","model.add(Dropout(0.2))\n","model.add(Dense(150, activation='relu'))\n","model.add(Dropout(0.2))\n","model.add(Dense(50, activation='relu'))\n","model.add(Dropout(0.2))\n","model.add(Dense(7, activation='sigmoid'))\n","model.summary()"],"execution_count":null,"outputs":[{"output_type":"stream","text":["Model: \"sequential_1\"\n","_________________________________________________________________\n","Layer (type)                 Output Shape              Param #   \n","=================================================================\n","dense_4 (Dense)              (None, 350)               16450     \n","_________________________________________________________________\n","dropout_3 (Dropout)          (None, 350)               0         \n","_________________________________________________________________\n","dense_5 (Dense)              (None, 250)               87750     \n","_________________________________________________________________\n","dropout_4 (Dropout)          (None, 250)               0         \n","_________________________________________________________________\n","dense_6 (Dense)              (None, 150)               37650     \n","_________________________________________________________________\n","dropout_5 (Dropout)          (None, 150)               0         \n","_________________________________________________________________\n","dense_7 (Dense)              (None, 50)                7550      \n","_________________________________________________________________\n","dropout_6 (Dropout)          (None, 50)                0         \n","_________________________________________________________________\n","dense_8 (Dense)              (None, 7)                 357       \n","=================================================================\n","Total params: 149,757\n","Trainable params: 149,757\n","Non-trainable params: 0\n","_________________________________________________________________\n"],"name":"stdout"}]},{"cell_type":"code","metadata":{"id":"0vvfmUzWftg5"},"source":["# compile the model\n","model.compile(optimizer='Adam', # use rmsprop or Adam\n",
…
